…
  -sd CP_PATH, --save_dir CP_PATH  Path of checkpoint.pth
  -a ARCH, --arch ARCH             Select pre-trained model architecture. Default = vgg16
  -lr RATE, --learning_rate RATE   Set learning rate hyperparameter. Default = 0.001
  -hu UNITS, --hidden_units UNITS  Number of hidden units. Default = 2048
  -e EPOCHS, --epochs EPOCHS       Number of training epochs. Default = 3
  --gpu                            Use GPU (CUDA) for training

(udacity)
coold@TooOPLive-PC MINGW64 /e/python/Project2/aipnd-project (master)
$ python train.py ./flower_data --save_dir ./checkpoint/checkpoint.pth --gpu
VGG(
  (features): Sequential(
    (0): Conv2d(3, 64, kernel_size=(3, 3), stride=(1, 1), padding=(1, 1))
    (1): ReLU(inplace=True)
    (2): Conv2d(64, 64, kernel_size=(3, 3), stride=(1, 1), padding=(1, 1))
    (3): ReLU(inplace=True)
    (4): MaxPool2d(kernel_size=2, stride=2, padding=0, dilation=1, ceil_mode=False)
    (5): Conv2d(64, 128, kernel_size=(3, 3), stride=(1, 1), padding=(1, 1))
    (6): ReLU(inplace=True)
    (7): Conv2d(128, 128, kernel_size=(3, 3), stride=(1, 1), padding=(1, 1))
    (8): ReLU(inplace=True)
    (9): MaxPool2d(kernel_size=2, stride=2, padding=0, dilation=1, ceil_mode=False)
    (10): Conv2d(128, 256, kernel_size=(3, 3), stride=(1, 1), padding=(1, 1))
    (11): ReLU(inplace=True)
    (12): Conv2d(256, 256, kernel_size=(3, 3), stride=(1, 1), padding=(1, 1))
    (13): ReLU(inplace=True)
    (14): Conv2d(256, 256, kernel_size=(3, 3), stride=(1, 1), padding=(1, 1))
    (15): ReLU(inplace=True)
    (16): MaxPool2d(kernel_size=2, stride=2, padding=0, dilation=1, ceil_mode=False)
    (17): Conv2d(256, 512, kernel_size=(3, 3), stride=(1, 1), padding=(1, 1))
    (18): ReLU(inplace=True)
    (19): Conv2d(512, 512, kernel_size=(3, 3), stride=(1, 1), padding=(1, 1))
    (20): ReLU(inplace=True)
    (21): Conv2d(512, 512, kernel_size=(3, 3), stride=(1, 1), padding=(1, 1))
    (22): ReLU(inplace=True)
    (23): MaxPool2d(kernel_size=2, stride=2, padding=0, dilation=1, ceil_mode=False)
    (24): Conv2d(512, 512, kernel_size=(3, 3), stride=(1, 1), padding=(1, 1))
    (25): ReLU(inplace=True)
    (26): Conv2d(512, 512, kernel_size=(3, 3), stride=(1, 1), padding=(1, 1))
    (27): ReLU(inplace=True)
    (28): Conv2d(512, 512, kernel_size=(3, 3), stride=(1, 1), padding=(1, 1))
    (29): ReLU(inplace=True)
    (30): MaxPool2d(kernel_size=2, stride=2, padding=0, dilation=1, ceil_mode=False)
  )
  (avgpool): AdaptiveAvgPool2d(output_size=(7, 7))
  (classifier): Sequential(
    (fc1): Linear(in_features=25088, out_features=2048, bias=True)
    (relu): ReLU()
    (fc2): Linear(in_features=2048, out_features=256, bias=True)
    (fc3): Linear(in_features=256, out_features=102, bias=True)
    (output): LogSoftmax(dim=1)
  )
)
Training is now starting
Architecture:   vgg16
Hidden Units:   2048
Epochs:         3
Learning Rate:  0.001
GPU Enabled:    True
Epoch 1/3.. Loss: 5.925.. Validation loss: 5.053.. Accuracy: 0.100
Epoch 1/3.. Loss: 4.722.. Validation loss: 3.907.. Accuracy: 0.147
Epoch 1/3.. Loss: 3.736.. Validation loss: 3.411.. Accuracy: 0.240
…
